federated_model.pth (torch, 25432 bytes, 6 tensors)

fc1.weight f4 [64, 54]
0	0x3da5c72e	0.08094631
1	0xbc3443a0	-0.011002451
2	0x3dcf81b3	0.1013216
3	0xbc4cb1da	-0.012493575
4	0x3d8498c6	0.06474452
5	0xbdc42b4b	-0.0957857
6	0xbcc7d46e	-0.024393287
7	0xbdacd07b	-0.08438202
8	0xbce8dc16	-0.028425258
9	0x3e05c016	0.13061556
10	0x3ced0aaa	0.02893575
11	0xbbae3782	-0.0053166756
12	0xbe076445	-0.13221844
13	0x3ccc060d	0.024905229
14	0xbd694086	-0.0569463
15	0xbc85a571	-0.01631424
16	0x3d1c0816	0.03809365
17	0xbda3e3d7	-0.080024414
18	0x3d263298	0.040575594
19	0xbda72bea	-0.08162673
20	0xbd2adef6	-0.04171654
21	0xbde62dc3	-0.11239197
22	0xbdc39db6	-0.09551565
23	0xbd61a496	-0.055088602
24	0x3df19b3b	0.11797186
25	0xbd683bc5	-0.056697626
26	0xbddffede	-0.10937284
27	0xbda350f9	-0.07974429
28	0xbb36b531	-0.0027878995
29	0xbdbf6254	-0.093449265
30	0x3d92d2cd	0.07169113
31	0xbdbec381	-0.09314633
32	0x3d4cd420	0.050006986
33	0x3ded0db0	0.11574876
34	0xbe089186	-0.13336763
35	0x3d8a76ca	0.067609385
36	0xbdcce50a	-0.10004623
37	0x3dbfe0b3	0.0936903
38	0xbd48cc06	-0.049022697
39	0x3dc1a4e2	0.09455277
40	0xbdca620e	-0.09881984
41	0xbdd47440	-0.103737354
42	0x3c92203b	0.017837634
43	0xbd904e16	-0.07046144
44	0x3ded4905	0.11586193
45	0x3dec55b6	0.115397856
46	0x3e042713	0.1290553
47	0xbe072938	-0.13199317
48	0x3df693aa	0.120398834
49	0xbc0fa22a	-0.00876669
50	0xbdf0c90d	-0.117570974
51	0xbdfc9d28	-0.12334663
52	0x3e08a3b9	0.13343705
53	0x3e1b77ad	0.15182371
54	0xbd48051a	-0.04883299
55	0xbdd692a6	-0.1047719
56	0x3dd544f2	0.10413541
57	0xbdf1a7f6	-0.11799614
58	0x3dbff926	0.09373693
59	0xbd13c0a3	-0.036072385
60	0x3daf6073	0.08563318
61	0x3de313cb	0.110877596
62	0xbdfd469a	-0.12366982
63	0x3deba33b	0.11505743
64	0x3c335003	0.010944369
65	0x3de0eb53	0.109823845
66	0xbd62c76d	-0.05536597
67	0x3b4c955e	0.003121696
68	0xbdde5263	-0.10855558
69	0xbdc53fdb	-0.0963132
70	0xbd145b3e	-0.036219828
71	0xbce26250	-0.02763477
72	0x3bec369d	0.007208659
73	0xbd88c0e2	-0.066774145
74	0x3d604790	0.054755747
75	0x3d4152b3	0.04719801
76	0xbd04ea6d	-0.03245013
77	0x3ddb95e6	0.1072195
78	0xbd78bbf6	-0.06072613
79	0xbc459f62	-0.012061926
80	0xbd1b8862	-0.03797186
81	0x3d6462da	0.055758335
82	0xbcf28700	-0.029605389
83	0x3ddbb0e3	0.10727098
84	0x3dfa5273	0.12222757
85	0x3dbb8401	0.09156037
86	0xbe09bbc3	-0.13450532
87	0xbdf09956	-0.117479965
88	0xbda835ce	-0.082133874
89	0xbdd9a6db	-0.10627528
90	0x3d77691e	0.060402982
91	0xbe016eee	-0.12639973
92	0x3ceabb15	0.02865366
93	0x3d01e345	0.03171088
94	0x3becc993	0.007226178
95	0x3d6c80f8	0.05774018
96	0x3e0a9da4	0.13536698
97	0xbdc13658	-0.094341934
98	0xbd32ae14	-0.043623045
99	0xbd94d555	-0.07267252
100	0xbd323aa3	-0.04351295
101	0xbe00f8da	-0.1259493
102	0xbd8df73b	-0.06931921
103	0x3d996509	0.07489974
104	0x3e04b0a5	0.1295801
105	0x3dc299f6	0.09502022
106	0xbcf3618b	-0.029709598
107	0xbda77673	-0.08176889
108	0x3dad0918	0.08449
109	0xbc567c7b	-0.013091202
110	0xbd9e22aa	-0.077214554
111	0x3d8bd852	0.06828369
112	0x3d7a4e18	0.061109632
113	0x3df7859d	0.120860316
114	0x3d9a2721	0.075269945
115	0xb91867d8	-0.00014534534
116	0x3c48d3aa	0.012257496
117	0xbd2711be	-0.040788405
118	0x3d71a6cd	0.058996964
119	0x3b9d1110	0.004793294
120	0x3e01645c	0.1263594
121	0x3dc39f2d	0.09551845
122	0x3dd9e238	0.10638851
123	0x3d1e8ce1	0.03870857
124	0x3e09085d	0.13382097
125	0xbb10c538	-0.0022090208
126	0x3d3c38a0	0.04595244
127	0x3db7942a	0.08963807
128	0x3c28e811	0.010309235
129	0xbe0426eb	-0.12905471
130	0x3b5acb4e	0.003338534
131	0x3cbd4118	0.023102328
132	0x3c8cb0bc	0.017174117
133	0x3d2d9f48	0.04238823
134	0xbdd904e2	-0.105966344
135	0x3c0a5ac6	0.008444494
136	0x3d4745da	0.0486506
137	0xbd504945	-0.050851125
138	0x3d622a65	0.05521621
139	0xb881a27a	-6.181463e-05
140	0xbdf98525	-0.121835984
141	0xbd519e95	-0.051176626
142	0x3d5d569b	0.05403767
143	0xbd880e86	-0.06643395
144	0x3ccf9936	0.025341611
145	0xbdaf6ced	-0.08565698
146	0x3df6f808	0.12059027
147	0x3d6b9098	0.057510942
148	0xbd6cb2ba	-0.057787634
149	0x3d2f923a	0.042864062
150	0x3dff4382	0.12464048
151	0xbc162f8b	-0.009166609
152	0xbdf63dea	-0.12023528
153	0x3ddbd40d	0.10733805
154	0x3d28b942	0.0411923
155	0x3cf3e3ce	0.029771712
156	0x3de39023	0.11111476
157	0xbd3020d0	-0.043000042
158	0x3d0a68e6	0.033791445
159	0xbdb3f7be	-0.087874874
160	0x3ca6b02a	0.020347673
161	0xbe2cb596	-0.16866145
162	0x3d8a0721	0.06739641
163	0x3ca69062	0.020332519
164	0x3dc85d68	0.09783441
165	0xbdbd9336	-0.09256594
166	0x3d684c93	0.056713652
167	0xbde87dd6	-0.11352126
168	0x3dd4c8ca	0.1038986
169	0xbc596476	-0.013268581
170	0xb9abcd0e	-0.0003276844
171	0x3dbb39d2	0.09141888
172	0x3dddb962	0.108263746
173	0xbcab5d0c	-0.020918392
174	0x3d264a12	0.040597983
175	0x3dfd8065	0.12378005
176	0x3cdb4292	0.026765142
177	0x3d8e61ee	0.06952272
178	0xbd364c5d	-0.04450642
179	0x3d7dbb96	0.061946474
180	0xbc9b9a86	-0.018994581
181	0xbdb3da2a	-0.08781846
182	0xbd9f366c	-0.07774052
183	0x3d8080d5	0.06274573
184	0xbdf68506	-0.12037091
185	0x3b0e84a2	0.0021746536
186	0x3ca804f5	0.020510176
187	0xbde4f1c6	-0.11178927
188	0xbd9342c8	-0.07190472
189	0xbe025599	-0.12727965
190	0xbd01adb4	-0.031659797
191	0x3c33f766	0.010984277
192	0xbdc020b2	-0.09381236
193	0x3dcc4e18	0.09975833
194	0xbb45210a	-0.0030079507
195	0xbd141aec	-0.036158487
196	0x3e03442e	0.12818977
197	0x3d147b1e	0.036250226
198	0x3daf2cd0	0.08553469
199	0xbde40c98	-0.111352146
200	0x3c929c46	0.017896783
201	0xbdafebc1	-0.08589888
202	0xbc95401e	-0.01821905
203	0x3cd8705b	0.026420763
204	0x3d8ba76a	0.06819041
205	0xbde7d1d6	-0.1131932
206	0x3df05808	0.11735541
207	0xbde4f21b	-0.111789905
208	0x3db33145	0.08749632
209	0xbcdf8622	-0.02728564
210	0xbdc6c8b3	-0.09706249
211	0x3d6e3fdb	0.058166366
212	0xbb3c217e	-0.0028706486
213	0xbdab4436	-0.083626196
214	0xbda82f29	-0.0821212
215	0x3e5b97a5	0.21444567
216	0x3dcb16eb	0.09916481
217	0x3ddb85ca	0.107188776
218	0xb9bd2214	-0.0003607428
219	0x3ddcab45	0.107748546
220	0x3d8f97a2	0.070113435
221	0xbc10bb6a	-0.0088337455
222	0x3d36840a	0.044559516
223	0xbdee799d	-0.1164429
224	0x3d9169a1	0.07100225
225	0x3d5ef168	0.05442944
226	0xbe150cb2	-0.14555624
227	0x3d8c2c7b	0.068444215
228	0x3d9ed4eb	0.07755455
229	0xbdb736a0	-0.08945966
230	0x3dbd419b	0.09241029
231	0x3d94ad3a	0.07259603
232	0x3d87246b	0.06598743
233	0xbc83db23	-0.016095703
234	0xba91f111	-0.0011134465
235	0xbe02bd76	-0.12767586
236	0x3d386592	0.04501874
237	0x3dfc61c8	0.12323338
238	0x3deff670	0.11716926
239	0x3d9f1e23	0.0776942
240	0xbc9ea4d5	-0.019365707
241	0x3d9c12ae	0.0762075
242	0x3e030768	0.12795794
243	0xbd924122	-0.07141329
244	0xbd5a5436	-0.053302966
245	0x3ced9573	0.029001927
246	0x3bc49e6c	0.0060003307
247	0xbdd720fd	-0.10504339
248	0xbdd1856d	-0.10230527
249	0x3da6f75a	0.08152647
250	0x3d693478	0.056934804
251	0xbd95b69a	-0.07310219
252	0xbd1e380b	-0.038627665
253	0xbd90cc63	-0.07070234
254	0xbd573fa0	-0.052550912
255	0x3df7292b	0.12068399

fc1.bias f4 [64]
0	0xbdab4a5c	-0.08363792
1	0xbb243d17	-0.0025060826
2	0x3e0e4a22	0.13895467
3	0xbd20e6a2	-0.03928245
4	0xbdb2512d	-0.08706889
5	0x3d8c9f8e	0.0686637
6	0x3e79ee13	0.24407224
7	0x3d815a73	0.0631608
8	0x3c5ca8f2	0.013468014
9	0xbcb5a54d	-0.022173548
10	0x3d764993	0.06012876
11	0x3dec64d6	0.115426704
12	0xbd9b501a	-0.075836375
13	0x3e4f585d	0.20248552
14	0xbd1d147d	-0.038349617
15	0xbd89c073	-0.0672616
16	0x3d81d99d	0.063403346
17	0xbd9c2a42	-0.076252475
18	0x3e043830	0.12912059
19	0x3e678db6	0.22612652
20	0xbd758300	-0.059939384
21	0xbd33ea02	-0.04392434
22	0xbdd9d56a	-0.106364086
23	0x3d92daeb	0.071706615
24	0x3da088ae	0.078385696
25	0x3d9c3755	0.07627741
26	0xbd1c3886	-0.038139842
27	0x3e41696a	0.18887869
28	0x3d363930	0.044488132
29	0xbddb151d	-0.106973864
30	0x3de05266	0.10953216
31	0xbd9355e8	-0.0719412
32	0x3deebe2d	0.11657367
33	0xbdc68753	-0.0969378
34	0x3cd0b7f8	0.025478348
35	0xbd0c75af	-0.03429192
36	0x3da081a8	0.0783723
37	0x3e80978e	0.25115627
38	0xbd176ad3	-0.03696711
39	0xbdc1ed38	-0.09469074
40	0x3d86e102	0.065858856
41	0x3daee762	0.085402265
42	0x3d7ce508	0.06174186
43	0x3cda6aa0	0.02666217
44	0xbe03d9ea	-0.12876096
45	0x3dc2c95d	0.09511063
46	0x3ded5866	0.11589126
47	0xbddaf3fb	-0.10691067
48	0x3dcbb32a	0.09946282
49	0x3e060a75	0.13089927
50	0x3de65e28	0.11248428
51	0x3db26243	0.08710148
52	0x3e065932	0.13119963
53	0x3e1118e6	0.14169654
54	0x3e1d21e4	0.1534496
55	0x3e2ebe10	0.1706469
56	0xbd8e2952	-0.06941475
57	0x3d0f870e	0.035040908
58	0xbdafec40	-0.08589983
59	0xbcd7164a	-0.026255745
60	0xbcc69eb5	-0.0242456
61	0x3cd5bea2	0.026091877
62	0x3c96afb2	0.018394325
63	0xbba51dc6	-0.0050389497

fc2.weight f4 [32, 64]
0	0xbd9fbac4	-0.077992946
1	0x3dec21c5	0.115298785
2	0xbe007a7e	-0.12546727
3	0xbdb1d020	-0.08682275
4	0xbd3d14dd	-0.046162475
5	0x3d85498e	0.0650817
6	0x3de5fd73	0.11229982
7	0xbda3479b	-0.07972642
8	0xbc831006	-0.015998852
9	0x3c017760	0.007901996
10	0x3dbcb820	0.092148066
11	0xbd1c1a85	-0.03811123
12	0x3d85575e	0.065108046
13	0xbdb1617a	-0.0866117
14	0xbd61494b	-0.05500154
15	0xbbc630ee	-0.0060483133
16	0x3d72ac55	0.05924638
17	0xbcb19d65	-0.021681497
18	0x3e0083ba	0.1255025
19	0x3ce0b790	0.02743128
20	0x3cdb0275	0.02673457
21	0xbde1f375	-0.11032764
22	0x3dade07e	0.08490084
23	0x3de96880	0.11396885
24	0x3d6011fe	0.05470466
25	0xbda0c940	-0.078508854
26	0x3cdd6dd2	0.027029905
27	0x3c28d6ce	0.01030512
28	0x3c666c43	0.014063898
29	0xbd74abd0	-0.059734166
30	0x3c5fce8b	0.0136600835
31	0xbd442062	-0.047882445
32	0x3df8bad0	0.12145007
33	0xbdb55d78	-0.088557184
34	0x3de6ac9e	0.11263393
35	0xbde5c943	-0.11220028
36	0xbdde617a	-0.10858436
37	0x3c8da818	0.017292067
38	0xbdf8ab8d	-0.12142096
39	0x3db95c45	0.09050802
40	0x3e0798b5	0.13241847
41	0x3da8dd88	0.08245379
42	0x3d49f4d8	0.049305767
43	0x3c4b17e5	0.012395834
44	0xbd6a3405	-0.057178516
45	0x3cce7ca3	0.025205916
46	0x3d23022c	0.039796993
47	0x3db2fe18	0.08739871
48	0xbcd46c10	-0.025930434
49	0xbca2971d	-0.019847447
50	0xbdf74d83	-0.12075331
51	0xbc847413	-0.01616863
52	0x3d0b7a36	0.034052096
53	0x3c8d7902	0.017269615
54	0xbdea6728	-0.11445457
55	0xbdfd8653	-0.12379136
56	0xbd10fce8	-0.03539744
57	0x3c0283fe	0.00796604
58	0xba42e0d6	-0.0007434016
59	0xbd13749f	-0.03599989
60	0xbdd9d313	-0.10635962
61	0xbdf0ce6d	-0.117581226
62	0xbd1f986d	-0.038963724
63	0x3d92f727	0.07176047
64	0xbd0bea7a	-0.03415916
65	0xbd972541	-0.073801525
66	0xbdbb08ba	-0.09132524
67	0xbd4d90d2	-0.05018694
68	0xbdfa9800	-0.12236023
69	0x3d681a42	0.056665666
70	0xbdc942b3	-0.09827175
71	0x3d2af7d0	0.04174024
72	0xbd235b2a	-0.039881863
73	0xbd993cda	-0.0748231
74	0x3d97d174	0.07412997
75	0xbdb9107a	-0.09036346
76	0xbd8b6424	-0.0680621
77	0x3dd7e5bd	0.10541866
78	0x3cfabdaa	0.030608017
79	0xbbbd3b52	-0.005774894
80	0xbdcfc41b	-0.10144826
81	0xbc11c3b6	-0.008896759
82	0xbca17fc0	-0.019714236
83	0x3ddd063a	0.10792203
84	0x3caaa89d	0.020832354
85	0xbdc97e0a	-0.09838493
86	0x3cca8c8a	0.024725217
87	0xbde9c80e	-0.114151105
88	0xbc2cb96d	-0.010542256
89	0xbd2c3f27	-0.042052414
90	0xbdd00113	-0.10156455
91	0xbda63715	-0.08115975
92	0xbddb3585	-0.107035674
93	0x3de034e5	0.10947589
94	0xbdabe11d	-0.08392546
95	0xbda8175b	-0.0820758
96	0xbb8df6a2	-0.0043323794
97	0xbdd94de5	-0.1061056
98	0x3df304a8	0.118661225
99	0x3de51bd6	0.1118695
100	0xbd14eb15	-0.036357004
101	0x3d1654ad	0.036701847
102	0xbdb038f0	-0.0860461
103	0x3da062a8	0.07831317
104	0xbddf7e33	-0.109127425
105	0x3da93ab2	0.08263148
106	0xbd023469	-0.031788263
107	0x3d6a840a	0.05725483
108	0x3d88d6bd	0.06681583
109	0x3dd6b86e	0.10484396
110	0x3db85c60	0.09001994
111	0x3dcc807d	0.09985445
112	0x3dd9b96b	0.10631069
113	0xbd0157fb	-0.031578045
114	0x3d6ec756	0.05829557
115	0xbd9e8781	-0.07740689
116	0x3d12e664	0.03586425
117	0xbc11568e	-0.008870734
118	0x3c40a49d	0.011757997
119	0xbd83ac3f	-0.06429338
120	0xbdc85a62	-0.09782864
121	0xbd78c100	-0.060730934
122	0xbda7a1b5	-0.0818514
123	0xbd1cdf4f	-0.0382989
124	0x3d7a57c0	0.06111884
125	0xbddff4be	-0.10935353
126	0xbc8cc91a	-0.017185736
127	0x3cb466f6	0.022021752
128	0xbce154dd	-0.027506286
129	0xbd75f930	-0.060052097
130	0x3c6b13b2	0.014347957
131	0xbd036c16	-0.0320855
132	0x3dcc2200	0.099674225
133	0x3dac3d5a	0.084101394
134	0x3d963fcf	0.07336389
135	0x3d746a1b	0.059671503
136	0xbd831762	-0.06400944
137	0xbddadab0	-0.106862426
138	0xbd8ff88a	-0.07029827
139	0x3da2e62c	0.07954058
140	0xbdc81b86	-0.09770875
141	0xbc0b700a	-0.008510599
142	0xbddc24fa	-0.1074924
143	0xbd88f281	-0.06686879
144	0xbdf7b408	-0.12094885
145	0xbdd697ee	-0.10478197
146	0x3cd32420	0.025774062
147	0xbd9cb32a	-0.0765136
148	0xbc1a987e	-0.009435771
149	0xbcd7e88a	-0.026356
150	0x3d0e1aa0	0.03469336
151	0x3c44552a	0.011983195
152	0xbc08ed40	-0.008357346
153	0x3d89cbd3	0.067283295
154	0xbbaed148	-0.005335007
155	0xbc2012f8	-0.0097701475
156	0xbdf2ec06	-0.11861424
157	0xbda64638	-0.08118862
158	0x3d94fd67	0.07274895
159	0xbcaf28b2	-0.02138171
160	0xbdf4a0f5	-0.119447626
161	0x3d26689e	0.040627114
162	0x3d2b64ab	0.04184405
163	0x3d7b6263	0.061373126
164	0xbd9a1cd3	-0.07525029
165	0xbd932bb3	-0.07186069
166	0xbc9c2d0a	-0.019064445
167	0x3bea1cfa	0.0071445676
168	0x3c7f7ea6	0.01559416
169	0x3c53debb	0.012931521
170	0x3db321a7	0.08746653
171	0xbd8833d3	-0.0665051
172	0xbd770d02	-0.06031514
173	0xbddc6ba3	-0.107627176
174	0xbc3dec25	-0.011591946
175	0xbd4d9588	-0.050191432
176	0x3d6a863b	0.05725692
177	0xbd40ef02	-0.047102936
178	0x3d5b8058	0.053589195
179	0xbdb4ae69	-0.088223286
180	0x3d9050f2	0.07046689
181	0x3dd1bdea	0.10241301
182	0xbca1b833	-0.019741153
183	0x3de0eafa	0.10982318
184	0x3de93f1d	0.11388991
185	0xbd890181	-0.0668974
186	0x3bb4de06	0.0055196313
187	0xbdf9ee56	-0.12203662
188	0x3ddaab5b	0.10677215
189	0xbd5ef66b	-0.05443422
190	0xbd4ab4df	-0.0494889
191	0x3da13275	0.07870952
192	0x3e0b8a98	0.13627088
193	0x3b5c8b63	0.0033652417
194	0xbd7d9d86	-0.061917804
195	0xbd9e4f1d	-0.077299334
196	0x3d296798	0.04135856
197	0x3e155b2a	0.14585558
198	0xbe05fc5c	-0.13084549
199	0xbd46340e	-0.048389487
200	0x3db9a0e5	0.09063891
201	0xbd83c608	-0.06434256
202	0xbd07c816	-0.0331498
203	0xbce3ecf3	-0.027822947
204	0x3d835c77	0.06414121
205	0x3e130575	0.1435755
206	0xbd3cef14	-0.04612644
207	0xbd01e733	-0.03171463
208	0xbd9568bf	-0.07295369
209	0xbd9c50a6	-0.0763257
210	0x3e133bd3	0.1437829
211	0xbd59c720	-0.053168416
212	0x3df8e0e0	0.121522665
213	0xbda65255	-0.08121172
214	0x3e1ab0bb	0.1510648
215	0x3d089001	0.033340458
216	0x3d6cb606	0.05779078
217	0x3d25fb32	0.04052276
218	0x3e1da208	0.15393841
219	0x3b9e71fe	0.0048353663
220	0x3e136406	0.14393625
221	0x3e03daf3	0.12876491
222	0xbc67ad93	-0.014140504
223	0x3e0bfe70	0.13671279
224	0x3e19b56d	0.15010615
225	0x3e014b10	0.1262629
226	0x3d1bba28	0.03801933
227	0x3da7ec84	0.08199409
228	0x3bb587c6	0.005539867
229	0xbe084cd3	-0.13310556
230	0x3df8eda3	0.121547006
231	0xbdd33668	-0.103131115
232	0x3d82058d	0.06348715
233	0x3d6ba62e	0.05753153
234	0xbdd986bd	-0.106214024
235	0xbc006747	-0.007837123
236	0x3d7946e2	0.060858615
237	0xbd9acdf2	-0.07558812
238	0x3e09e6a7	0.13466893
239	0x3d5d58aa	0.054039635
240	0x3d625fe8	0.055267245
241	0xbdf8b7fe	-0.12144469
242	0x3bd41dba	0.0064732702
243	0xbd2b4368	-0.04181233
244	0x3d81ae8d	0.06332121
245	0x3e2ca94e	0.1686146
246	0xbd958536	-0.073007986
247	0x3d84d732	0.06486358
248	0x3e1d91e9	0.15387692
249	0x3c2e16dc	0.010625567
250	0xbd98d483	-0.074624084
251	0xbd000782	-0.03125716
252	0xbc29b21b	-0.010357405
253	0xbd40d8d7	-0.047081795
254	0xbd06ce32	-0.032911487
255	0xbd588cdd	-0.052868713

fc2.bias f4 [32]
0	0x3a9c2183	0.0011911843
1	0xbda9f12a	-0.082979515
2	0x3b22b1bb	0.0024825174
3	0x3e6acc85	0.2292958
4	0xbdd74d66	-0.105128095
5	0x3e5cbfe6	0.21557578
6	0x3e004c96	0.12529215
7	0x3e0ce803	0.1376038
8	0xbd5de44d	-0.054172803
9	0x3d0e1fad	0.034698177
10	0x3e0cd83d	0.13754363
11	0x3dd526be	0.1040778
12	0x3b7960f3	0.003805217
13	0x3e4941e9	0.19654049
14	0xbde975a2	-0.1139939
15	0x3d001095	0.031265814
16	0x3d844f82	0.064604774
17	0x3ce6d0ad	0.028175676
18	0xbc939aa0	-0.018018067
19	0x3c8f0963	0.01746053
20	0xbd88dc7b	-0.06682678
21	0x3d098282	0.033571728
22	0xbdd7d232	-0.105381384
23	0x3e1f72e3	0.1557117
24	0x3e2fe116	0.17175707
25	0x3b9117fe	0.004427909
26	0xbc88346e	-0.016626563
27	0x3daa6651	0.083202966
28	0x3d3f670a	0.046729125
29	0x3a45c671	0.00075445237
30	0xbd0e7ca5	-0.03478684
31	0xbd0ce20a	-0.034395255

fc3.weight f4 [3, 32]
0	0x3ccda8db	0.02510493
1	0x3e19d9da	0.1502451
2	0xbbff1a4a	-0.0077851163
3	0xbe92846d	-0.28616658
4	0x3d38f96d	0.045159746
5	0xbef424c3	-0.47684297
6	0x3eab423e	0.33448976
7	0xbea0e776	-0.3142659
8	0x3d9aa78b	0.075514875
9	0xbd41c3d0	-0.047305882
10	0xbc6ad3ba	-0.014332706
11	0x3e599950	0.2124989
12	0xbca528ba	-0.020161022
13	0x3f2986ea	0.6622149
14	0xbe14916e	-0.14508602
15	0xbce50a23	-0.027958935
16	0x3de2ab3d	0.11067817
17	0x3eb14eaa	0.34630328
18	0xbe443353	-0.19160204
19	0xbdfa4055	-0.122193016
20	0xbe3359e1	-0.17514755
21	0x3d1387fa	0.03601835
22	0x3bed8d83	0.0072495355
23	0x3e99b938	0.30024123
24	0x3e481c9a	0.1954216
25	0x3dc19e5f	0.09454035
26	0x3e009616	0.12557253
27	0x3e82f6d8	0.25578952
28	0x3e72d9fd	0.23715968
29	0x3e2149d4	0.1575082
30	0x3e00049a	0.12501755
31	0x3e9e147e	0.3087501
32	0x3cbaabe9	0.022787051
33	0xbc15bbc6	-0.009139007
34	0x3bae7575	0.0053240606
35	0x3e8185a2	0.25297266
36	0xbc12d3c6	-0.008961624
37	0x3d7630c0	0.060105085
38	0xbdeac795	-0.114638485
39	0x3d3fe1ba	0.04684613
40	0xbd90a6de	-0.070630774
41	0xbbba374a	-0.0056828605
42	0xbd25f3cd	-0.04051571
43	0xbd0f85b0	-0.035039604
44	0xbdf22e8d	-0.11825285
45	0xbe3f752b	-0.1869704
46	0x3df50572	0.11963929
47	0xbd488326	-0.048953198
48	0x3e5cd4c0	0.21565533
49	0xbe29c5d8	-0.16579378
50	0x3ca5fc6a	0.020261962
51	0x3e33cb2a	0.1755797
52	0x3e20bd7a	0.1569728
53	0xbd76187a	-0.060081936
54	0xbd01cb83	-0.031688225
55	0xbe713518	-0.2355541
56	0x3e81cc72	0.25351292
57	0xbd51c592	-0.05121381
58	0xbe2e9222	-0.17047933
59	0xbe890d7b	-0.26768097
60	0xbe49ad9e	-0.19695136
61	0xbe151cf7	-0.1456183
62	0xbbd08a78	-0.006364163
63	0xbc6cc8d2	-0.014452176
64	0x3dca436e	0.098761424
65	0x3d973f6c	0.07385144
66	0xbd901ee2	-0.070371404
67	0x3d26e19a	0.040742494
68	0x3e0cd7fe	0.1375427
69	0x3ef19636	0.47184914
70	0xbed70d46	-0.42002314
71	0x3ee98818	0.45611644
72	0xbe050895	-0.12991555
73	0xbc687815	-0.014188786
74	0xbe633daa	-0.22191492
75	0xbe414305	-0.18873222
76	0xbe4112f5	-0.18854888
77	0xbf0a054a	-0.5391432
78	0x3e1de082	0.15417674
79	0xbd29ba86	-0.04143765
80	0xbdadb759	-0.084822364
81	0xbdbecac4	-0.09316018
82	0xbe067ae2	-0.13132814
83	0xbe0bcafd	-0.13651653
84	0x3d1329d6	0.03592857
85	0xbdeacf3a	-0.114653066
86	0x3d8fb5b2	0.070170775
87	0xbeb51305	-0.35366073
88	0xbead3dde	-0.33836263
89	0xbd9d2d1e	-0.07674621
90	0x3d120378	0.03564784
91	0xbe2e5503	-0.17024617
92	0xbdc1fd80	-0.094721794
93	0x3e24a4a6	0.16078433
94	0x3a4ea3d8	0.0007882691
95	0xbcf32680	-0.029681444

fc3.bias f4 [3]
0	0xbcab9972	-0.020947192
1	0x3ed5abbd	0.41732588
2	0xbe9cd91b	-0.30634388
